#loc = loc("/inspire/hdd/project/embodied-multimodality/liuzhigeng-253108120105/projects/ffa/huffkv-opencompass/opencompass/models/myModel/ffa/ffa_triton/ffa_triton_v1016-2.py":94:0)
#loc1 = loc(unknown)
#loc37 = loc("/inspire/hdd/project/embodied-multimodality/liuzhigeng-253108120105/projects/ffa/huffkv-opencompass/opencompass/models/myModel/ffa/ffa_triton/ffa_triton_v1016-2.py":145:28)
#loc45 = loc("/inspire/hdd/project/embodied-multimodality/liuzhigeng-253108120105/projects/ffa/huffkv-opencompass/opencompass/models/myModel/ffa/ffa_triton/ffa_triton_v1016-2.py":150:25)
#loc48 = loc("/inspire/hdd/project/embodied-multimodality/liuzhigeng-253108120105/projects/ffa/huffkv-opencompass/opencompass/models/myModel/ffa/ffa_triton/ffa_triton_v1016-2.py":151:25)
#loc56 = loc("/inspire/hdd/project/embodied-multimodality/liuzhigeng-253108120105/projects/ffa/huffkv-opencompass/opencompass/models/myModel/ffa/ffa_triton/ffa_triton_v1016-2.py":162:28)
#loc58 = loc("/inspire/hdd/project/embodied-multimodality/liuzhigeng-253108120105/projects/ffa/huffkv-opencompass/opencompass/models/myModel/ffa/ffa_triton/ffa_triton_v1016-2.py":165:28)
#loc91 = loc(callsite(#loc1 at #loc37))
#loc93 = loc(callsite(#loc1 at #loc45))
#loc95 = loc(callsite(#loc1 at #loc48))
#loc98 = loc(callsite(#loc1 at #loc56))
#loc100 = loc(callsite(#loc1 at #loc58))
module {
  tt.func public @attn_forward_stage1_pruned(%arg0: !tt.ptr<f16> {tt.divisibility = 16 : i32} loc("/inspire/hdd/project/embodied-multimodality/liuzhigeng-253108120105/projects/ffa/huffkv-opencompass/opencompass/models/myModel/ffa/ffa_triton/ffa_triton_v1016-2.py":94:0), %arg1: !tt.ptr<f8E5M2> {tt.divisibility = 16 : i32} loc("/inspire/hdd/project/embodied-multimodality/liuzhigeng-253108120105/projects/ffa/huffkv-opencompass/opencompass/models/myModel/ffa/ffa_triton/ffa_triton_v1016-2.py":94:0), %arg2: !tt.ptr<f16> {tt.divisibility = 16 : i32} loc("/inspire/hdd/project/embodied-multimodality/liuzhigeng-253108120105/projects/ffa/huffkv-opencompass/opencompass/models/myModel/ffa/ffa_triton/ffa_triton_v1016-2.py":94:0), %arg3: !tt.ptr<f32> {tt.divisibility = 16 : i32} loc("/inspire/hdd/project/embodied-multimodality/liuzhigeng-253108120105/projects/ffa/huffkv-opencompass/opencompass/models/myModel/ffa/ffa_triton/ffa_triton_v1016-2.py":94:0), %arg4: !tt.ptr<f32> {tt.divisibility = 16 : i32} loc("/inspire/hdd/project/embodied-multimodality/liuzhigeng-253108120105/projects/ffa/huffkv-opencompass/opencompass/models/myModel/ffa/ffa_triton/ffa_triton_v1016-2.py":94:0), %arg5: !tt.ptr<f32> {tt.divisibility = 16 : i32} loc("/inspire/hdd/project/embodied-multimodality/liuzhigeng-253108120105/projects/ffa/huffkv-opencompass/opencompass/models/myModel/ffa/ffa_triton/ffa_triton_v1016-2.py":94:0), %arg6: !tt.ptr<f32> {tt.divisibility = 16 : i32} loc("/inspire/hdd/project/embodied-multimodality/liuzhigeng-253108120105/projects/ffa/huffkv-opencompass/opencompass/models/myModel/ffa/ffa_triton/ffa_triton_v1016-2.py":94:0), %arg7: !tt.ptr<i8> {tt.divisibility = 16 : i32} loc("/inspire/hdd/project/embodied-multimodality/liuzhigeng-253108120105/projects/ffa/huffkv-opencompass/opencompass/models/myModel/ffa/ffa_triton/ffa_triton_v1016-2.py":94:0), %arg8: f32 loc("/inspire/hdd/project/embodied-multimodality/liuzhigeng-253108120105/projects/ffa/huffkv-opencompass/opencompass/models/myModel/ffa/ffa_triton/ffa_triton_v1016-2.py":94:0), %arg9: i32 loc("/inspire/hdd/project/embodied-multimodality/liuzhigeng-253108120105/projects/ffa/huffkv-opencompass/opencompass/models/myModel/ffa/ffa_triton/ffa_triton_v1016-2.py":94:0), %arg10: i32 loc("/inspire/hdd/project/embodied-multimodality/liuzhigeng-253108120105/projects/ffa/huffkv-opencompass/opencompass/models/myModel/ffa/ffa_triton/ffa_triton_v1016-2.py":94:0), %arg11: i32 loc("/inspire/hdd/project/embodied-multimodality/liuzhigeng-253108120105/projects/ffa/huffkv-opencompass/opencompass/models/myModel/ffa/ffa_triton/ffa_triton_v1016-2.py":94:0)) attributes {noinline = false} {
    %cst = arith.constant dense<0.000000e+00> : tensor<256x128xf16> loc(#loc1)
    %cst_0 = arith.constant dense<0.000000e+00> : tensor<128x256xf8E5M2> loc(#loc1)
    %cst_1 = arith.constant dense<0.000000e+00> : tensor<16x128xf16> loc(#loc1)
    %c1_i8 = arith.constant 1 : i8 loc(#loc1)
    %cst_2 = arith.constant dense<1024> : tensor<256x1xi32> loc(#loc1)
    %cst_3 = arith.constant dense<0xFF800000> : tensor<16xf32> loc(#loc1)
    %cst_4 = arith.constant dense<0xFF800000> : tensor<16x256xf32> loc(#loc1)
    %cst_5 = arith.constant dense<1.44269502> : tensor<16x256xf32> loc(#loc1)
    %cst_6 = arith.constant dense<0.000000e+00> : tensor<16x256xf32> loc(#loc1)
    %cst_7 = arith.constant dense<128> : tensor<1x256xi32> loc(#loc1)
    %c0_i32 = arith.constant 0 : i32 loc(#loc1)
    %cst_8 = arith.constant dense<0.000000e+00> : tensor<16x128xf32> loc(#loc1)
    %cst_9 = arith.constant dense<128> : tensor<16x1xi32> loc(#loc1)
    %c128_i32 = arith.constant 128 : i32 loc(#loc1)
    %cst_10 = arith.constant dense<3> : tensor<16xi32> loc(#loc1)
    %c256_i32 = arith.constant 256 : i32 loc(#loc1)
    %c3_i32 = arith.constant 3 : i32 loc(#loc1)
    %0 = tt.get_program_id x : i32 loc(#loc2)
    %1 = tt.get_program_id y : i32 loc(#loc3)
    %2 = arith.muli %0, %c3_i32 : i32 loc(#loc4)
    %3 = arith.muli %1, %c256_i32 : i32 loc(#loc5)
    %4 = tt.make_range {end = 16 : i32, start = 0 : i32} : tensor<16xi32> loc(#loc6)
    %5 = arith.cmpi slt, %4, %cst_10 : tensor<16xi32> loc(#loc7)
    %6 = tt.make_range {end = 128 : i32, start = 0 : i32} : tensor<128xi32> loc(#loc8)
    %7 = tt.splat %2 : i32 -> tensor<16xi32> loc(#loc9)
    %8 = arith.addi %7, %4 : tensor<16xi32> loc(#loc9)
    %9 = tt.expand_dims %8 {axis = 1 : i32} : tensor<16xi32> -> tensor<16x1xi32> loc(#loc10)
    %10 = arith.muli %9, %cst_9 : tensor<16x1xi32> loc(#loc11)
    %11 = tt.splat %arg0 : !tt.ptr<f16> -> tensor<16x1x!tt.ptr<f16>> loc(#loc12)
    %12 = tt.addptr %11, %10 : tensor<16x1x!tt.ptr<f16>>, tensor<16x1xi32> loc(#loc12)
    %13 = tt.expand_dims %6 {axis = 0 : i32} : tensor<128xi32> -> tensor<1x128xi32> loc(#loc13)
    %14 = tt.broadcast %12 : tensor<16x1x!tt.ptr<f16>> -> tensor<16x128x!tt.ptr<f16>> loc(#loc14)
    %15 = tt.broadcast %13 : tensor<1x128xi32> -> tensor<16x128xi32> loc(#loc14)
    %16 = tt.addptr %14, %15 : tensor<16x128x!tt.ptr<f16>>, tensor<16x128xi32> loc(#loc14)
    %17 = tt.expand_dims %5 {axis = 1 : i32} : tensor<16xi1> -> tensor<16x1xi1> loc(#loc15)
    %18 = tt.broadcast %17 : tensor<16x1xi1> -> tensor<16x128xi1> loc(#loc16)
    %19 = tt.load %16, %18, %cst_1 : tensor<16x128x!tt.ptr<f16>> loc(#loc16)
    %20 = tt.make_range {end = 256 : i32, start = 0 : i32} : tensor<256xi32> loc(#loc17)
    %21 = tt.splat %3 : i32 -> tensor<256xi32> loc(#loc18)
    %22 = arith.addi %21, %20 : tensor<256xi32> loc(#loc18)
    %23 = tt.splat %arg9 : i32 -> tensor<256xi32> loc(#loc19)
    %24 = arith.cmpi slt, %22, %23 : tensor<256xi32> loc(#loc19)
    %25 = arith.muli %0, %arg9 : i32 loc(#loc20)
    %26 = arith.muli %25, %c128_i32 : i32 loc(#loc21)
    %27 = tt.addptr %arg1, %26 : !tt.ptr<f8E5M2>, i32 loc(#loc22)
    %28 = tt.expand_dims %22 {axis = 0 : i32} : tensor<256xi32> -> tensor<1x256xi32> loc(#loc23)
    %29 = arith.muli %28, %cst_7 : tensor<1x256xi32> loc(#loc24)
    %30 = tt.splat %27 : !tt.ptr<f8E5M2> -> tensor<1x256x!tt.ptr<f8E5M2>> loc(#loc25)
    %31 = tt.addptr %30, %29 : tensor<1x256x!tt.ptr<f8E5M2>>, tensor<1x256xi32> loc(#loc25)
    %32 = tt.expand_dims %6 {axis = 1 : i32} : tensor<128xi32> -> tensor<128x1xi32> loc(#loc26)
    %33 = tt.broadcast %31 : tensor<1x256x!tt.ptr<f8E5M2>> -> tensor<128x256x!tt.ptr<f8E5M2>> loc(#loc27)
    %34 = tt.broadcast %32 : tensor<128x1xi32> -> tensor<128x256xi32> loc(#loc27)
    %35 = tt.addptr %33, %34 : tensor<128x256x!tt.ptr<f8E5M2>>, tensor<128x256xi32> loc(#loc27)
    %36 = tt.expand_dims %24 {axis = 0 : i32} : tensor<256xi1> -> tensor<1x256xi1> loc(#loc28)
    %37 = tt.broadcast %36 : tensor<1x256xi1> -> tensor<128x256xi1> loc(#loc29)
    %38 = tt.load %35, %37, %cst_0 : tensor<128x256x!tt.ptr<f8E5M2>> loc(#loc30)
    %39 = tt.fp_to_fp %38 : tensor<128x256xf8E5M2> -> tensor<128x256xf16> loc(#loc31)
    %40 = tt.dot %19, %39, %cst_6, inputPrecision = tf32 : tensor<16x128xf16> * tensor<128x256xf16> -> tensor<16x256xf32> loc(#loc32)
    %41 = tt.splat %arg8 : f32 -> tensor<16x256xf32> loc(#loc33)
    %42 = arith.mulf %40, %41 : tensor<16x256xf32> loc(#loc33)
    %43 = arith.mulf %42, %cst_5 : tensor<16x256xf32> loc(#loc34)
    %44 = tt.broadcast %36 : tensor<1x256xi1> -> tensor<16x256xi1> loc(#loc35)
    %45 = arith.select %44, %43, %cst_4 : tensor<16x256xi1>, tensor<16x256xf32> loc(#loc35)
    %46 = "tt.reduce"(%45) <{axis = 1 : i32}> ({
    ^bb0(%arg12: f32 loc(callsite(#loc1 at #loc37)), %arg13: f32 loc(callsite(#loc1 at #loc37))):
      %57 = arith.maxnumf %arg12, %arg13 : f32 loc(#loc101)
      tt.reduce.return %57 : f32 loc(#loc90)
    }) : (tensor<16x256xf32>) -> tensor<16xf32> loc(#loc90)
    %47 = tt.splat %arg6 : !tt.ptr<f32> -> tensor<16x!tt.ptr<f32>> loc(#loc39)
    %48 = tt.addptr %47, %8 : tensor<16x!tt.ptr<f32>>, tensor<16xi32> loc(#loc39)
    %49 = tt.load %48, %5, %cst_3 : tensor<16x!tt.ptr<f32>> loc(#loc40)
    %50 = arith.cmpf olt, %46, %49 : tensor<16xf32> loc(#loc41)
    %51 = arith.andi %50, %5 : tensor<16xi1> loc(#loc42)
    %52 = arith.extui %51 : tensor<16xi1> to tensor<16xi32> loc(#loc43)
    %53 = "tt.reduce"(%52) <{axis = 0 : i32}> ({
    ^bb0(%arg12: i32 loc(callsite(#loc1 at #loc45)), %arg13: i32 loc(callsite(#loc1 at #loc45))):
      %57 = arith.addi %arg12, %arg13 : i32 loc(#loc102)
      tt.reduce.return %57 : i32 loc(#loc92)
    }) : (tensor<16xi32>) -> i32 loc(#loc92)
    %54 = arith.extui %5 : tensor<16xi1> to tensor<16xi32> loc(#loc47)
    %55 = "tt.reduce"(%54) <{axis = 0 : i32}> ({
    ^bb0(%arg12: i32 loc(callsite(#loc1 at #loc48)), %arg13: i32 loc(callsite(#loc1 at #loc48))):
      %57 = arith.addi %arg12, %arg13 : i32 loc(#loc103)
      tt.reduce.return %57 : i32 loc(#loc94)
    }) : (tensor<16xi32>) -> i32 loc(#loc94)
    %56 = arith.cmpi ne, %53, %55 : i32 loc(#loc96)
    scf.if %56 {
      %57 = tt.expand_dims %46 {axis = 1 : i32} : tensor<16xf32> -> tensor<16x1xf32> loc(#loc52)
      %58 = tt.broadcast %57 : tensor<16x1xf32> -> tensor<16x256xf32> loc(#loc53)
      %59 = arith.subf %43, %58 : tensor<16x256xf32> loc(#loc53)
      %60 = math.exp2 %59 : tensor<16x256xf32> loc(#loc54)
      %61 = arith.select %44, %60, %cst_6 : tensor<16x256xi1>, tensor<16x256xf32> loc(#loc55)
      %62 = "tt.reduce"(%61) <{axis = 1 : i32}> ({
      ^bb0(%arg12: f32 loc(callsite(#loc1 at #loc56)), %arg13: f32 loc(callsite(#loc1 at #loc56))):
        %89 = arith.addf %arg12, %arg13 : f32 loc(#loc104)
        tt.reduce.return %89 : f32 loc(#loc97)
      }) : (tensor<16x256xf32>) -> tensor<16xf32> loc(#loc97)
      %63 = arith.extui %24 : tensor<256xi1> to tensor<256xi32> loc(#loc57)
      %64 = "tt.reduce"(%63) <{axis = 0 : i32}> ({
      ^bb0(%arg12: i32 loc(callsite(#loc1 at #loc58)), %arg13: i32 loc(callsite(#loc1 at #loc58))):
        %89 = arith.addi %arg12, %arg13 : i32 loc(#loc105)
        tt.reduce.return %89 : i32 loc(#loc99)
      }) : (tensor<256xi32>) -> i32 loc(#loc99)
      %65 = arith.cmpi sgt, %64, %c0_i32 : i32 loc(#loc59)
      %66 = scf.if %65 -> (tensor<16x128xf32>) {
        %89 = tt.expand_dims %22 {axis = 1 : i32} : tensor<256xi32> -> tensor<256x1xi32> loc(#loc61)
        %90 = arith.muli %89, %cst_2 : tensor<256x1xi32> loc(#loc62)
        %91 = tt.splat %arg2 : !tt.ptr<f16> -> tensor<256x1x!tt.ptr<f16>> loc(#loc63)
        %92 = tt.addptr %91, %90 : tensor<256x1x!tt.ptr<f16>>, tensor<256x1xi32> loc(#loc63)
        %93 = arith.muli %0, %c128_i32 : i32 loc(#loc64)
        %94 = tt.splat %93 : i32 -> tensor<256x1xi32> loc(#loc65)
        %95 = tt.addptr %92, %94 : tensor<256x1x!tt.ptr<f16>>, tensor<256x1xi32> loc(#loc65)
        %96 = tt.broadcast %95 : tensor<256x1x!tt.ptr<f16>> -> tensor<256x128x!tt.ptr<f16>> loc(#loc66)
        %97 = tt.broadcast %13 : tensor<1x128xi32> -> tensor<256x128xi32> loc(#loc66)
        %98 = tt.addptr %96, %97 : tensor<256x128x!tt.ptr<f16>>, tensor<256x128xi32> loc(#loc66)
        %99 = tt.expand_dims %24 {axis = 1 : i32} : tensor<256xi1> -> tensor<256x1xi1> loc(#loc67)
        %100 = tt.broadcast %99 : tensor<256x1xi1> -> tensor<256x128xi1> loc(#loc68)
        %101 = tt.load %98, %100, %cst : tensor<256x128x!tt.ptr<f16>> loc(#loc68)
        %102 = arith.truncf %61 : tensor<16x256xf32> to tensor<16x256xf16> loc(#loc69)
        %103 = tt.dot %102, %101, %cst_8, inputPrecision = tf32 : tensor<16x256xf16> * tensor<256x128xf16> -> tensor<16x128xf32> loc(#loc70)
        scf.yield %103 : tensor<16x128xf32> loc(#loc70)
      } else {
        scf.yield %cst_8 : tensor<16x128xf32> loc(#loc1)
      } loc(#loc60)
      %67 = tt.splat %arg11 : i32 -> tensor<16xi32> loc(#loc71)
      %68 = arith.muli %8, %67 : tensor<16xi32> loc(#loc71)
      %69 = tt.splat %arg3 : !tt.ptr<f32> -> tensor<16x!tt.ptr<f32>> loc(#loc72)
      %70 = tt.addptr %69, %68 : tensor<16x!tt.ptr<f32>>, tensor<16xi32> loc(#loc72)
      %71 = tt.splat %1 : i32 -> tensor<16xi32> loc(#loc73)
      %72 = tt.addptr %70, %71 : tensor<16x!tt.ptr<f32>>, tensor<16xi32> loc(#loc73)
      %73 = tt.splat %arg4 : !tt.ptr<f32> -> tensor<16x!tt.ptr<f32>> loc(#loc74)
      %74 = tt.addptr %73, %68 : tensor<16x!tt.ptr<f32>>, tensor<16xi32> loc(#loc74)
      %75 = tt.addptr %74, %71 : tensor<16x!tt.ptr<f32>>, tensor<16xi32> loc(#loc75)
      %76 = arith.muli %arg11, %c128_i32 : i32 loc(#loc76)
      %77 = tt.splat %76 : i32 -> tensor<16x1xi32> loc(#loc77)
      %78 = arith.muli %9, %77 : tensor<16x1xi32> loc(#loc77)
      %79 = tt.splat %arg5 : !tt.ptr<f32> -> tensor<16x1x!tt.ptr<f32>> loc(#loc78)
      %80 = tt.addptr %79, %78 : tensor<16x1x!tt.ptr<f32>>, tensor<16x1xi32> loc(#loc78)
      %81 = arith.muli %1, %c128_i32 : i32 loc(#loc79)
      %82 = tt.splat %81 : i32 -> tensor<16x1xi32> loc(#loc80)
      %83 = tt.addptr %80, %82 : tensor<16x1x!tt.ptr<f32>>, tensor<16x1xi32> loc(#loc80)
      %84 = tt.broadcast %83 : tensor<16x1x!tt.ptr<f32>> -> tensor<16x128x!tt.ptr<f32>> loc(#loc81)
      %85 = tt.addptr %84, %15 : tensor<16x128x!tt.ptr<f32>>, tensor<16x128xi32> loc(#loc81)
      tt.store %72, %46, %5 : tensor<16x!tt.ptr<f32>> loc(#loc82)
      tt.store %75, %62, %5 : tensor<16x!tt.ptr<f32>> loc(#loc83)
      tt.store %85, %66, %18 : tensor<16x128x!tt.ptr<f32>> loc(#loc84)
      %86 = arith.muli %0, %arg11 : i32 loc(#loc85)
      %87 = tt.addptr %arg7, %86 : !tt.ptr<i8>, i32 loc(#loc86)
      %88 = tt.addptr %87, %1 : !tt.ptr<i8>, i32 loc(#loc87)
      tt.store %88, %c1_i8 : !tt.ptr<i8> loc(#loc88)
    } loc(#loc51)
    tt.return loc(#loc89)
  } loc(#loc)
} loc(#loc)
#loc2 = loc("/inspire/hdd/project/embodied-multimodality/liuzhigeng-253108120105/projects/ffa/huffkv-opencompass/opencompass/models/myModel/ffa/ffa_triton/ffa_triton_v1016-2.py":103:28)
#loc3 = loc("/inspire/hdd/project/embodied-multimodality/liuzhigeng-253108120105/projects/ffa/huffkv-opencompass/opencompass/models/myModel/ffa/ffa_triton/ffa_triton_v1016-2.py":104:28)
#loc4 = loc("/inspire/hdd/project/embodied-multimodality/liuzhigeng-253108120105/projects/ffa/huffkv-opencompass/opencompass/models/myModel/ffa/ffa_triton/ffa_triton_v1016-2.py":105:24)
#loc5 = loc("/inspire/hdd/project/embodied-multimodality/liuzhigeng-253108120105/projects/ffa/huffkv-opencompass/opencompass/models/myModel/ffa/ffa_triton/ffa_triton_v1016-2.py":108:18)
#loc6 = loc("/inspire/hdd/project/embodied-multimodality/liuzhigeng-253108120105/projects/ffa/huffkv-opencompass/opencompass/models/myModel/ffa/ffa_triton/ffa_triton_v1016-2.py":111:28)
#loc7 = loc("/inspire/hdd/project/embodied-multimodality/liuzhigeng-253108120105/projects/ffa/huffkv-opencompass/opencompass/models/myModel/ffa/ffa_triton/ffa_triton_v1016-2.py":112:22)
#loc8 = loc("/inspire/hdd/project/embodied-multimodality/liuzhigeng-253108120105/projects/ffa/huffkv-opencompass/opencompass/models/myModel/ffa/ffa_triton/ffa_triton_v1016-2.py":114:28)
#loc9 = loc("/inspire/hdd/project/embodied-multimodality/liuzhigeng-253108120105/projects/ffa/huffkv-opencompass/opencompass/models/myModel/ffa/ffa_triton/ffa_triton_v1016-2.py":115:30)
#loc10 = loc("/inspire/hdd/project/embodied-multimodality/liuzhigeng-253108120105/projects/ffa/huffkv-opencompass/opencompass/models/myModel/ffa/ffa_triton/ffa_triton_v1016-2.py":115:36)
#loc11 = loc("/inspire/hdd/project/embodied-multimodality/liuzhigeng-253108120105/projects/ffa/huffkv-opencompass/opencompass/models/myModel/ffa/ffa_triton/ffa_triton_v1016-2.py":115:47)
#loc12 = loc("/inspire/hdd/project/embodied-multimodality/liuzhigeng-253108120105/projects/ffa/huffkv-opencompass/opencompass/models/myModel/ffa/ffa_triton/ffa_triton_v1016-2.py":115:19)
#loc13 = loc("/inspire/hdd/project/embodied-multimodality/liuzhigeng-253108120105/projects/ffa/huffkv-opencompass/opencompass/models/myModel/ffa/ffa_triton/ffa_triton_v1016-2.py":115:58)
#loc14 = loc("/inspire/hdd/project/embodied-multimodality/liuzhigeng-253108120105/projects/ffa/huffkv-opencompass/opencompass/models/myModel/ffa/ffa_triton/ffa_triton_v1016-2.py":115:51)
#loc15 = loc("/inspire/hdd/project/embodied-multimodality/liuzhigeng-253108120105/projects/ffa/huffkv-opencompass/opencompass/models/myModel/ffa/ffa_triton/ffa_triton_v1016-2.py":116:45)
#loc16 = loc("/inspire/hdd/project/embodied-multimodality/liuzhigeng-253108120105/projects/ffa/huffkv-opencompass/opencompass/models/myModel/ffa/ffa_triton/ffa_triton_v1016-2.py":116:23)
#loc17 = loc("/inspire/hdd/project/embodied-multimodality/liuzhigeng-253108120105/projects/ffa/huffkv-opencompass/opencompass/models/myModel/ffa/ffa_triton/ffa_triton_v1016-2.py":129:49)
#loc18 = loc("/inspire/hdd/project/embodied-multimodality/liuzhigeng-253108120105/projects/ffa/huffkv-opencompass/opencompass/models/myModel/ffa/ffa_triton/ffa_triton_v1016-2.py":129:36)
#loc19 = loc("/inspire/hdd/project/embodied-multimodality/liuzhigeng-253108120105/projects/ffa/huffkv-opencompass/opencompass/models/myModel/ffa/ffa_triton/ffa_triton_v1016-2.py":130:32)
#loc20 = loc("/inspire/hdd/project/embodied-multimodality/liuzhigeng-253108120105/projects/ffa/huffkv-opencompass/opencompass/models/myModel/ffa/ffa_triton/ffa_triton_v1016-2.py":133:36)
#loc21 = loc("/inspire/hdd/project/embodied-multimodality/liuzhigeng-253108120105/projects/ffa/huffkv-opencompass/opencompass/models/myModel/ffa/ffa_triton/ffa_triton_v1016-2.py":133:40)
#loc22 = loc("/inspire/hdd/project/embodied-multimodality/liuzhigeng-253108120105/projects/ffa/huffkv-opencompass/opencompass/models/myModel/ffa/ffa_triton/ffa_triton_v1016-2.py":133:26)
#loc23 = loc("/inspire/hdd/project/embodied-multimodality/liuzhigeng-253108120105/projects/ffa/huffkv-opencompass/opencompass/models/myModel/ffa/ffa_triton/ffa_triton_v1016-2.py":133:55)
#loc24 = loc("/inspire/hdd/project/embodied-multimodality/liuzhigeng-253108120105/projects/ffa/huffkv-opencompass/opencompass/models/myModel/ffa/ffa_triton/ffa_triton_v1016-2.py":133:66)
#loc25 = loc("/inspire/hdd/project/embodied-multimodality/liuzhigeng-253108120105/projects/ffa/huffkv-opencompass/opencompass/models/myModel/ffa/ffa_triton/ffa_triton_v1016-2.py":133:45)
#loc26 = loc("/inspire/hdd/project/embodied-multimodality/liuzhigeng-253108120105/projects/ffa/huffkv-opencompass/opencompass/models/myModel/ffa/ffa_triton/ffa_triton_v1016-2.py":133:78)
#loc27 = loc("/inspire/hdd/project/embodied-multimodality/liuzhigeng-253108120105/projects/ffa/huffkv-opencompass/opencompass/models/myModel/ffa/ffa_triton/ffa_triton_v1016-2.py":133:71)
#loc28 = loc("/inspire/hdd/project/embodied-multimodality/liuzhigeng-253108120105/projects/ffa/huffkv-opencompass/opencompass/models/myModel/ffa/ffa_triton/ffa_triton_v1016-2.py":136:46)
#loc29 = loc("/inspire/hdd/project/embodied-multimodality/liuzhigeng-253108120105/projects/ffa/huffkv-opencompass/opencompass/models/myModel/ffa/ffa_triton/ffa_triton_v1016-2.py":136:36)
#loc30 = loc("/inspire/hdd/project/embodied-multimodality/liuzhigeng-253108120105/projects/ffa/huffkv-opencompass/opencompass/models/myModel/ffa/ffa_triton/ffa_triton_v1016-2.py":135:12)
#loc31 = loc("/inspire/hdd/project/embodied-multimodality/liuzhigeng-253108120105/projects/ffa/huffkv-opencompass/opencompass/models/myModel/ffa/ffa_triton/ffa_triton_v1016-2.py":138:13)
#loc32 = loc("/inspire/hdd/project/embodied-multimodality/liuzhigeng-253108120105/projects/ffa/huffkv-opencompass/opencompass/models/myModel/ffa/ffa_triton/ffa_triton_v1016-2.py":141:33)
#loc33 = loc("/inspire/hdd/project/embodied-multimodality/liuzhigeng-253108120105/projects/ffa/huffkv-opencompass/opencompass/models/myModel/ffa/ffa_triton/ffa_triton_v1016-2.py":141:65)
#loc34 = loc("/inspire/hdd/project/embodied-multimodality/liuzhigeng-253108120105/projects/ffa/huffkv-opencompass/opencompass/models/myModel/ffa/ffa_triton/ffa_triton_v1016-2.py":141:73)
#loc35 = loc("/inspire/hdd/project/embodied-multimodality/liuzhigeng-253108120105/projects/ffa/huffkv-opencompass/opencompass/models/myModel/ffa/ffa_triton/ffa_triton_v1016-2.py":142:52)
#loc36 = loc("/inspire/hdd/project/embodied-multimodality/liuzhigeng-253108120105/miniconda/envs/ffa/lib/python3.12/site-packages/triton/language/standard.py":188:40)
#loc38 = loc("/inspire/hdd/project/embodied-multimodality/liuzhigeng-253108120105/miniconda/envs/ffa/lib/python3.12/site-packages/triton/language/standard.py":167:27)
#loc39 = loc("/inspire/hdd/project/embodied-multimodality/liuzhigeng-253108120105/projects/ffa/huffkv-opencompass/opencompass/models/myModel/ffa/ffa_triton/ffa_triton_v1016-2.py":148:43)
#loc40 = loc("/inspire/hdd/project/embodied-multimodality/liuzhigeng-253108120105/projects/ffa/huffkv-opencompass/opencompass/models/myModel/ffa/ffa_triton/ffa_triton_v1016-2.py":148:26)
#loc41 = loc("/inspire/hdd/project/embodied-multimodality/liuzhigeng-253108120105/projects/ffa/huffkv-opencompass/opencompass/models/myModel/ffa/ffa_triton/ffa_triton_v1016-2.py":149:32)
#loc42 = loc("/inspire/hdd/project/embodied-multimodality/liuzhigeng-253108120105/projects/ffa/huffkv-opencompass/opencompass/models/myModel/ffa/ffa_triton/ffa_triton_v1016-2.py":149:43)
#loc43 = loc("/inspire/hdd/project/embodied-multimodality/liuzhigeng-253108120105/projects/ffa/huffkv-opencompass/opencompass/models/myModel/ffa/ffa_triton/ffa_triton_v1016-2.py":150:34)
#loc44 = loc("/inspire/hdd/project/embodied-multimodality/liuzhigeng-253108120105/miniconda/envs/ffa/lib/python3.12/site-packages/triton/language/standard.py":290:36)
#loc46 = loc("/inspire/hdd/project/embodied-multimodality/liuzhigeng-253108120105/miniconda/envs/ffa/lib/python3.12/site-packages/triton/language/standard.py":260:15)
#loc47 = loc("/inspire/hdd/project/embodied-multimodality/liuzhigeng-253108120105/projects/ffa/huffkv-opencompass/opencompass/models/myModel/ffa/ffa_triton/ffa_triton_v1016-2.py":151:37)
#loc49 = loc("/inspire/hdd/project/embodied-multimodality/liuzhigeng-253108120105/projects/ffa/huffkv-opencompass/opencompass/models/myModel/ffa/ffa_triton/ffa_triton_v1016-2.py":158:15)
#loc50 = loc("/inspire/hdd/project/embodied-multimodality/liuzhigeng-253108120105/projects/ffa/huffkv-opencompass/opencompass/models/myModel/ffa/ffa_triton/ffa_triton_v1016-2.py":152:31)
#loc51 = loc("/inspire/hdd/project/embodied-multimodality/liuzhigeng-253108120105/projects/ffa/huffkv-opencompass/opencompass/models/myModel/ffa/ffa_triton/ffa_triton_v1016-2.py":158:11)
#loc52 = loc("/inspire/hdd/project/embodied-multimodality/liuzhigeng-253108120105/projects/ffa/huffkv-opencompass/opencompass/models/myModel/ffa/ffa_triton/ffa_triton_v1016-2.py":161:71)
#loc53 = loc("/inspire/hdd/project/embodied-multimodality/liuzhigeng-253108120105/projects/ffa/huffkv-opencompass/opencompass/models/myModel/ffa/ffa_triton/ffa_triton_v1016-2.py":161:64)
#loc54 = loc("/inspire/hdd/project/embodied-multimodality/liuzhigeng-253108120105/projects/ffa/huffkv-opencompass/opencompass/models/myModel/ffa/ffa_triton/ffa_triton_v1016-2.py":161:58)
#loc55 = loc("/inspire/hdd/project/embodied-multimodality/liuzhigeng-253108120105/projects/ffa/huffkv-opencompass/opencompass/models/myModel/ffa/ffa_triton/ffa_triton_v1016-2.py":161:82)
#loc57 = loc("/inspire/hdd/project/embodied-multimodality/liuzhigeng-253108120105/projects/ffa/huffkv-opencompass/opencompass/models/myModel/ffa/ffa_triton/ffa_triton_v1016-2.py":165:41)
#loc59 = loc("/inspire/hdd/project/embodied-multimodality/liuzhigeng-253108120105/projects/ffa/huffkv-opencompass/opencompass/models/myModel/ffa/ffa_triton/ffa_triton_v1016-2.py":165:62)
#loc60 = loc("/inspire/hdd/project/embodied-multimodality/liuzhigeng-253108120105/projects/ffa/huffkv-opencompass/opencompass/models/myModel/ffa/ffa_triton/ffa_triton_v1016-2.py":167:15)
#loc61 = loc("/inspire/hdd/project/embodied-multimodality/liuzhigeng-253108120105/projects/ffa/huffkv-opencompass/opencompass/models/myModel/ffa/ffa_triton/ffa_triton_v1016-2.py":168:40)
#loc62 = loc("/inspire/hdd/project/embodied-multimodality/liuzhigeng-253108120105/projects/ffa/huffkv-opencompass/opencompass/models/myModel/ffa/ffa_triton/ffa_triton_v1016-2.py":168:52)
#loc63 = loc("/inspire/hdd/project/embodied-multimodality/liuzhigeng-253108120105/projects/ffa/huffkv-opencompass/opencompass/models/myModel/ffa/ffa_triton/ffa_triton_v1016-2.py":168:30)
#loc64 = loc("/inspire/hdd/project/embodied-multimodality/liuzhigeng-253108120105/projects/ffa/huffkv-opencompass/opencompass/models/myModel/ffa/ffa_triton/ffa_triton_v1016-2.py":168:75)
#loc65 = loc("/inspire/hdd/project/embodied-multimodality/liuzhigeng-253108120105/projects/ffa/huffkv-opencompass/opencompass/models/myModel/ffa/ffa_triton/ffa_triton_v1016-2.py":168:65)
#loc66 = loc("/inspire/hdd/project/embodied-multimodality/liuzhigeng-253108120105/projects/ffa/huffkv-opencompass/opencompass/models/myModel/ffa/ffa_triton/ffa_triton_v1016-2.py":168:80)
#loc67 = loc("/inspire/hdd/project/embodied-multimodality/liuzhigeng-253108120105/projects/ffa/huffkv-opencompass/opencompass/models/myModel/ffa/ffa_triton/ffa_triton_v1016-2.py":169:56)
#loc68 = loc("/inspire/hdd/project/embodied-multimodality/liuzhigeng-253108120105/projects/ffa/huffkv-opencompass/opencompass/models/myModel/ffa/ffa_triton/ffa_triton_v1016-2.py":169:33)
#loc69 = loc("/inspire/hdd/project/embodied-multimodality/liuzhigeng-253108120105/projects/ffa/huffkv-opencompass/opencompass/models/myModel/ffa/ffa_triton/ffa_triton_v1016-2.py":170:39)
#loc70 = loc("/inspire/hdd/project/embodied-multimodality/liuzhigeng-253108120105/projects/ffa/huffkv-opencompass/opencompass/models/myModel/ffa/ffa_triton/ffa_triton_v1016-2.py":170:52)
#loc71 = loc("/inspire/hdd/project/embodied-multimodality/liuzhigeng-253108120105/projects/ffa/huffkv-opencompass/opencompass/models/myModel/ffa/ffa_triton/ffa_triton_v1016-2.py":173:48)
#loc72 = loc("/inspire/hdd/project/embodied-multimodality/liuzhigeng-253108120105/projects/ffa/huffkv-opencompass/opencompass/models/myModel/ffa/ffa_triton/ffa_triton_v1016-2.py":173:29)
#loc73 = loc("/inspire/hdd/project/embodied-multimodality/liuzhigeng-253108120105/projects/ffa/huffkv-opencompass/opencompass/models/myModel/ffa/ffa_triton/ffa_triton_v1016-2.py":173:55)
#loc74 = loc("/inspire/hdd/project/embodied-multimodality/liuzhigeng-253108120105/projects/ffa/huffkv-opencompass/opencompass/models/myModel/ffa/ffa_triton/ffa_triton_v1016-2.py":174:29)
#loc75 = loc("/inspire/hdd/project/embodied-multimodality/liuzhigeng-253108120105/projects/ffa/huffkv-opencompass/opencompass/models/myModel/ffa/ffa_triton/ffa_triton_v1016-2.py":174:55)
#loc76 = loc("/inspire/hdd/project/embodied-multimodality/liuzhigeng-253108120105/projects/ffa/huffkv-opencompass/opencompass/models/myModel/ffa/ffa_triton/ffa_triton_v1016-2.py":175:65)
#loc77 = loc("/inspire/hdd/project/embodied-multimodality/liuzhigeng-253108120105/projects/ffa/huffkv-opencompass/opencompass/models/myModel/ffa/ffa_triton/ffa_triton_v1016-2.py":175:58)
#loc78 = loc("/inspire/hdd/project/embodied-multimodality/liuzhigeng-253108120105/projects/ffa/huffkv-opencompass/opencompass/models/myModel/ffa/ffa_triton/ffa_triton_v1016-2.py":175:29)
#loc79 = loc("/inspire/hdd/project/embodied-multimodality/liuzhigeng-253108120105/projects/ffa/huffkv-opencompass/opencompass/models/myModel/ffa/ffa_triton/ffa_triton_v1016-2.py":175:78)
#loc80 = loc("/inspire/hdd/project/embodied-multimodality/liuzhigeng-253108120105/projects/ffa/huffkv-opencompass/opencompass/models/myModel/ffa/ffa_triton/ffa_triton_v1016-2.py":175:70)
#loc81 = loc("/inspire/hdd/project/embodied-multimodality/liuzhigeng-253108120105/projects/ffa/huffkv-opencompass/opencompass/models/myModel/ffa/ffa_triton/ffa_triton_v1016-2.py":175:82)
#loc82 = loc("/inspire/hdd/project/embodied-multimodality/liuzhigeng-253108120105/projects/ffa/huffkv-opencompass/opencompass/models/myModel/ffa/ffa_triton/ffa_triton_v1016-2.py":177:29)
#loc83 = loc("/inspire/hdd/project/embodied-multimodality/liuzhigeng-253108120105/projects/ffa/huffkv-opencompass/opencompass/models/myModel/ffa/ffa_triton/ffa_triton_v1016-2.py":178:29)
#loc84 = loc("/inspire/hdd/project/embodied-multimodality/liuzhigeng-253108120105/projects/ffa/huffkv-opencompass/opencompass/models/myModel/ffa/ffa_triton/ffa_triton_v1016-2.py":179:29)
#loc85 = loc("/inspire/hdd/project/embodied-multimodality/liuzhigeng-253108120105/projects/ffa/huffkv-opencompass/opencompass/models/myModel/ffa/ffa_triton/ffa_triton_v1016-2.py":182:42)
#loc86 = loc("/inspire/hdd/project/embodied-multimodality/liuzhigeng-253108120105/projects/ffa/huffkv-opencompass/opencompass/models/myModel/ffa/ffa_triton/ffa_triton_v1016-2.py":182:32)
#loc87 = loc("/inspire/hdd/project/embodied-multimodality/liuzhigeng-253108120105/projects/ffa/huffkv-opencompass/opencompass/models/myModel/ffa/ffa_triton/ffa_triton_v1016-2.py":182:49)
#loc88 = loc("/inspire/hdd/project/embodied-multimodality/liuzhigeng-253108120105/projects/ffa/huffkv-opencompass/opencompass/models/myModel/ffa/ffa_triton/ffa_triton_v1016-2.py":182:56)
#loc89 = loc("/inspire/hdd/project/embodied-multimodality/liuzhigeng-253108120105/projects/ffa/huffkv-opencompass/opencompass/models/myModel/ffa/ffa_triton/ffa_triton_v1016-2.py":127:4)
#loc90 = loc(callsite(#loc36 at #loc37))
#loc92 = loc(callsite(#loc44 at #loc45))
#loc94 = loc(callsite(#loc44 at #loc48))
#loc96 = loc(fused[#loc49, #loc50])
#loc97 = loc(callsite(#loc44 at #loc56))
#loc99 = loc(callsite(#loc44 at #loc58))
#loc101 = loc(callsite(#loc38 at #loc90))
#loc102 = loc(callsite(#loc46 at #loc92))
#loc103 = loc(callsite(#loc46 at #loc94))
#loc104 = loc(callsite(#loc46 at #loc97))
#loc105 = loc(callsite(#loc46 at #loc99))
